MAT-Steer/validation/savemodelhere/model.pt (torch, 35023 bytes, 2 tensors)

steering_vectors.0 f4 [4096]
000000 e0 7e 87 3f 93 3f cb be d2 98 00 c0 0c df 89 3f
       1.0585594 -0.3969694 -2.0093274 1.0771194
000010 b2 11 91 be 15 10 bb 3e 05 32 0a 3e 98 d7 a2 bf
       -0.28333813 0.36535707 0.13495643 -1.2722044
000020 23 57 38 3f 1b 8f 2d be a6 75 a7 3e fe 2d 7b bf
       0.7200796 -0.16949122 0.32706946 -0.98117054
000030 98 0c 6f 3e 75 ff ec be 34 96 99 be 3e 2c a1 bf
       0.23344648 -0.46288648 -0.29997408 -1.2591627
000040 2b 33 e6 3e f7 c7 51 3f 69 1a 3a bb d8 40 55 3f
       0.44960913 0.8194575 -0.002839709 0.8330207
000050 9b 8f d1 be da 42 89 be 21 50 0d 3f 95 89 12 bf
       -0.40929875 -0.26808816 0.5520039 -0.57241184
000060 11 f0 3e 3f a9 4a 65 bf c4 71 70 bf 1a 8d f9 be
       0.7458506 -0.8956705 -0.9392359 -0.48740464
000070 c2 cc 65 3f 49 dc c3 bf dd 3b cb 3e 54 93 7b 3e
       0.8976556 -1.5301601 0.3969411 0.2456792
000080 7a 04 12 c0 6c f8 02 c0 94 51 62 3e 9a fc d3 3d
       -2.2815232 -2.0464125 0.22101432 0.10350914
000090 36 f2 0a 3f 74 12 51 bf 67 1f c1 bf f2 1e 5a 3e
       0.54275835 -0.8166878 -1.5087708 0.21300867
0000a0 77 11 8f 3e 33 f5 18 40 7a f0 1c 3f 1e 02 f0 be
       0.27943012 2.3899658 0.6130444 -0.46876615
0000b0 27 09 39 3f d5 81 07 3d 75 77 1f 3e c8 0e 7b 3f
       0.7227959 0.0330828 0.15572913 0.9806943
0000c0 82 20 b8 be e9 1f c8 be 80 4f a0 be 66 87 ed be
       -0.35962301 -0.39086846 -0.31310654 -0.46392363
0000d0 0c 88 04 3e 18 6f 22 be fc 3f e7 bf c9 ab 4c bf
       0.12942523 -0.15862691 -1.8066401 -0.79949623
0000e0 ac b4 d0 3d 28 ca 12 bf 32 de 52 bf 69 21 ad bf
       0.101907104 -0.57339716 -0.82370293 -1.3525821
0000f0 43 27 18 3f a9 2a ac 3f d1 16 04 be 0f dd a6 3f
       0.5943491 1.3450519 -0.12899329 1.3036212
000100 ab 4b 4d be 34 f6 1c bf de a5 54 3d b6 56 0a 3f
       -0.20048396 -0.61313176 0.051915996 0.5403856
000110 ca 44 5d bf 0e 54 8f be 71 91 2d bf a6 94 95 bf
       -0.8643309 -0.27993816 -0.6780005 -1.1685989
000120 26 57 22 bc 49 ec 93 bf 02 1f 6e 3f 2f 26 d9 bf
       -0.009908473 -1.1556484 0.93016064 -1.6964778
000130 c5 d2 de be 51 97 6f 3e a0 6d b6 3d 9b a4 30 3f
       -0.4352018 0.23397566 0.08907628 0.6900117
000140 72 c1 76 bf ad 65 f4 be 79 dd 9c 3f 11 a3 d9 3c
       -0.96388924 -0.47733822 1.2255088 0.026567014
000150 8f 06 fc 3f 86 86 e9 3d 24 db 4e bd a5 7c e2 3f
       1.9689502 0.114026114 -0.050501958 1.7694288
000160 08 89 88 3d da a2 b5 bf b7 98 73 bf f4 df 29 3f
       0.06666762 -1.4190323 -0.951549 0.6635735
000170 82 ea 46 3e 71 74 df bf da df 94 3e ba d4 69 be
       0.19425395 -1.745741 0.29077035 -0.22835055
000180 ca 48 c7 3f e4 98 93 be 82 41 dc bd 5e a8 c6 3d
       1.5569088 -0.28827584 -0.10754682 0.09700082
000190 29 21 b6 3f c5 d0 09 40 46 1c 95 be aa d7 19 3f
       1.422887 2.1533673 -0.29123133 0.600947
0001a0 68 85 b4 3d ba 71 9c bd 0c d1 2c 3e db cb 03 3f
       0.08814508 -0.07638879 0.1687662 0.51482934
0001b0 0b ed 52 be 72 a2 f9 be 67 a9 fa 3e 8a f4 2a 3f
       -0.20598237 -0.48756748 0.4895737 0.66779387
0001c0 3d 9e c3 3e e4 61 01 c0 8f 23 08 3e c8 2d 43 bf
       0.38206664 -2.0215998 0.13294815 -0.7624173
0001d0 94 ee 8d 3f 02 5e a3 3e f7 ca 52 bf 5f 71 8b bf
       1.1088433 0.3190766 -0.8234095 -1.0893973
0001e0 5c b6 dc 3f 9f 91 98 be a2 1f bb 3f 07 c5 ee 3f
       1.7243152 -0.297986 1.4619029 1.8653878
0001f0 54 de 35 bf bc 37 a5 bf d4 23 8a 3e a2 d3 87 3e
       -0.7104237 -1.2907634 0.2698046 0.2652865
000200 7d 9f 59 3e b6 18 91 3f 0e 6f 25 bf b0 8b 7a 3f
       0.21252246 1.1335666 -0.6462258 0.97869396
000210 15 bf 20 3f 51 93 8e bf 9f 25 2d 3f 84 1b e1 3d
       0.6279157 -1.1138707 0.6763553 0.10991576
000220 7d 9d c1 bd 32 48 a0 be 04 11 2b bf 6c 02 00 3e
       -0.09453867 -0.3130508 -0.6682284 0.12500924
000230 08 16 5a bd e4 08 3f 3f ce 64 45 bd f7 03 3d bd
       -0.053243667 0.7462294 -0.048191838 -0.04614636
000240 6c 29 78 3d 04 28 60 be be 4d c0 3e 4c f9 24 3e
       0.060586378 -0.21890265 0.37559313 0.16110724
000250 9f 9d 85 3e c8 91 0b 3d 0c 6e 79 3e db 0e 0b bf
       0.26096818 0.034074575 0.24358386 -0.5431954
000260 33 16 00 bf 3d d7 24 3f 18 6e 21 bf f4 f3 2e 3f
       -0.50033873 0.6439093 -0.63058615 0.6834099
000270 e1 d1 42 bf 79 96 b7 be df 4a 6d bf 73 ae 01 3e
       -0.761015 -0.3585699 -0.9269237 0.12664203
000280 b2 98 48 bf 1a 96 4c 3f 29 c9 36 bd 92 bb de 3e
       -0.78357995 0.79916537 -0.044625435 0.4350248
000290 f0 91 23 3f e1 ba 01 3f 55 c5 4c 3e 18 ce b6 bf
       0.6389456 0.5067578 0.19997151 -1.4281645
0002a0 25 5e ad bf 9d bf c0 3c 09 8f 1c bf d9 cc 9f 3e
       -1.3544356 0.023528868 -0.61155754 0.31210974
0002b0 61 15 48 bf 4a a5 01 bf b7 a9 60 3f 50 ad 84 bf
       -0.7815762 -0.50642836 0.87758964 -1.0365391
0002c0 11 46 1c be bc 28 d7 3f e5 ef 10 bf 8e 02 1a bf
       -0.15261103 1.6809306 -0.5661605 -0.6016015
0002d0 7e d9 f6 3f 58 03 d0 3e bb d6 92 bf f0 fe 35 3d
       1.9285123 0.4062755 -1.147178 0.04443258
0002e0 b4 0c f9 3e 76 7e 3e be 3e e6 1d bf 2b d3 22 bf
       0.48642504 -0.18602929 -0.61679447 -0.63603467
0002f0 f8 9a f4 3f 4f 29 0c bf fa 61 62 bf 4e eb bb bf
       1.9109793 -0.5475053 -0.8843075 -1.4681184
000300 ca 9a 9f be a4 a6 d6 be 24 51 92 3f b8 5b b7 3f
       -0.31172782 -0.41924012 1.1431012 1.4324865
000310 1d f5 9c bd 35 77 85 bf 88 f5 fe 3f 09 21 94 bf
       -0.07663939 -1.0427004 1.991868 -1.1572582
000320 3a 0f 48 3f 64 b5 82 be 49 89 64 3e d2 fc 7c 3e
       0.78148234 -0.25529015 0.22317995 0.24705818
000330 28 bf b4 be 0e eb 29 3e ba 17 e1 3e 78 00 f6 be
       -0.3530209 0.16593572 0.43963414 -0.48047233
000340 f6 d5 89 3f 13 95 12 bf 21 c8 86 be a4 f0 26 be
       1.0768421 -0.5725872 -0.2632456 -0.16302735
000350 ff 24 15 bd fb 47 c0 3e d6 c0 04 c0 3d ff ce 3f
       -0.036412235 0.37554917 -2.0742698 1.6171643
000360 34 59 ec 3e 5e 25 3b be a8 e8 59 3f 7d 89 47 3f
       0.46161807 -0.18275973 0.8512063 0.77944165
000370 36 c7 6e bf 31 7e 16 40 00 ad 63 3f 32 51 00 3f
       -0.9327272 2.351452 0.8893585 0.50123894
000380 c7 ea e8 bd 65 1a 17 3e 3e f8 8c bf 44 40 33 3f
       -0.11372905 0.14756162 -1.1013258 0.70019937
000390 ad 60 65 bf 57 28 d5 be a2 c6 0d 3f 34 63 08 bf
       -0.8960064 -0.4163234 0.55381215 -0.5327637
0003a0 85 df 33 bf 9f 68 14 40 3a dc 8a 3c 86 82 22 be
       -0.7026294 2.3188856 0.016950715 -0.15870103
0003b0 c3 bd e1 bf 00 bc e1 bf 69 62 93 bf 49 3b 39 3a
       -1.7636036 -1.7635498 -1.1514407 0.0007066024
0003c0 52 a4 9b 3e e5 78 c1 3f 82 59 86 3f 11 71 89 3f
       0.30398804 1.5115019 1.0496066 1.073763
0003d0 99 d0 8a 3e 41 4e e0 bc 90 d5 f0 bf 2e e2 b6 bf
       0.27112272 -0.027381064 -1.8815174 -1.4287775
0003e0 cb a4 92 be 88 c2 54 3f 5b 1e ee bd be 3b d9 3f
       -0.28641352 0.8310933 -0.116268836 1.6971357
0003f0 39 f2 c1 3f 40 80 53 3f dc 2c 0b 3f ee 5e b5 3d
       1.5152045 0.8261757 0.54365325 0.08855997

gating_weights.0.weight f4 [1, 4096]
000000 aa 2c d1 bc 84 44 63 3d 1a 9e 9e 3d 0a 31 ed bc
       -0.025533993 0.055485263 0.07744999 -0.028954048
000010 a6 f1 8a bd 2c 14 40 bd ea be 41 bd 98 77 5d 3d
       -0.06784372 -0.046894237 -0.04730121 0.05406913
000020 f7 c8 28 bd 34 fe 3b bd 8b 8f 1d bd 11 d4 3d bd
       -0.04120728 -0.045896724 -0.03846697 -0.04634482
000030 19 f7 bd bc 31 0b 53 bd ae a0 8e 3d c8 e4 7a 3d
       -0.023189114 -0.051524345 0.06964241 0.06125334
000040 82 ed 52 bd 03 be 28 3d c8 af 33 3d 2a 37 33 3d
       -0.051496036 0.041196834 0.04386881 0.04375378
000050 ff fe ee 3b 3a de 5e bd 97 1a 58 bd ae d3 51 bd
       0.0072935815 -0.05441115 -0.052759733 -0.051227264
000060 fc 57 a7 3c 7a ef 08 bd 9b d7 35 3a 8f 8b e2 bc
       0.020427696 -0.033431508 0.000693673 -0.027654437
000070 c0 59 fb bc 51 9a 38 bd fa b5 e9 3c b8 29 82 bd
       -0.030682445 -0.045069043 0.028529156 -0.063556135
000080 d6 4a 1f 3d 95 13 28 bd df 20 28 3d db a9 75 3d
       0.03888973 -0.0410343 0.041046973 0.05997644
000090 41 0f 0a bd 20 5f 5a 3d 26 91 3f bd 15 16 3a 3d
       -0.033705954 0.053313375 -0.046769284 0.045431215
0000a0 31 7e 04 3c 41 a8 70 bd ad 4a 7d bd 7b 32 47 bd
       0.008086727 -0.05875421 -0.061838794 -0.048632126
0000b0 88 b3 18 3d 55 7f 14 bd 2d 80 89 3d 2c 72 26 bd
       0.03728059 -0.036254246 0.06713901 -0.040636227
0000c0 ea 72 2a 3d 0a 93 2d bd 74 e5 99 3d 7b 1a 86 3d
       0.041613497 -0.042376556 0.07514468 0.065480195
0000d0 32 9a e8 3c 1c 24 4f bd 68 d5 2b 3d e1 2d 3f bd
       0.028393839 -0.050571546 0.041951567 -0.046674613
0000e0 0a 4d 4b bd db 11 7e 3d c9 8b 88 bd 04 b9 5f bc
       -0.049634017 0.062028747 -0.06667287 -0.013654951
0000f0 ff b2 85 bd 56 fc 7b 3d 9d 50 7e bd 26 62 87 bd
       -0.065282814 0.061519943 -0.062088598 -0.06610517
000100 ac d2 47 bd a4 c5 49 3d b0 15 c1 3c 45 78 6f 3d
       -0.048784897 0.04926075 0.023569912 0.058464307
000110 6e 11 3c bd f6 25 12 3d 5b f2 c6 3c 74 c8 8c 3d
       -0.04591506 0.035680734 0.024285486 0.06874171
000120 29 ed 87 3b 5b 3b 29 bd 1d bb 62 bd a3 43 8e bc
       0.0041481447 -0.04131637 -0.055354226 -0.017366236
000130 03 e0 78 3d 78 7b 15 bd 3a 8a 48 3d aa 6f 1f bd
       0.06076051 -0.036494702 0.048959948 -0.03892485
000140 42 44 58 bd 10 ee 0b bd c6 c0 be bb 5f 86 e1 3c
       -0.05279947 -0.03416258 -0.00582132 0.027529893
000150 62 72 fa 3c 22 e8 83 3d 9b f9 31 bd 3e dd 1a 3d
       0.03057212 0.0644076 -0.043450933 0.03780865
000160 23 70 34 bd 04 dc 3b bd 93 f3 6f 3d 0e b5 1b bd
       -0.044052254 -0.04586412 0.0585819 -0.038014464
000170 bf e9 4b 3d 92 1f 31 3d e7 e4 42 3d 77 d8 0d 3d
       0.049783465 0.043243 0.04758158 0.034630265
000180 cc 41 f1 3c 2d d3 41 3d d4 49 7e 3a dd f8 80 3d
       0.02945032 0.047320534 0.00097003323 0.06297467
000190 17 56 1b bd 8f 9f ff bc 64 7e 4b 3d 2f b9 3f bd
       -0.0379239 -0.031204013 0.049681082 -0.046807464
0001a0 3e 22 4c 3d 13 92 86 bc 80 c1 f4 bc 91 d3 3e 3d
       0.049837343 -0.016427075 -0.029877424 0.046588484
0001b0 23 23 93 3d ca 4a 34 3d dd 50 12 bd 7b f6 47 3d
       0.07184436 0.044016637 -0.03572165 0.048819046
0001c0 e0 f5 6a 3d 22 f6 74 3c 96 91 1b 3d 2d 13 3f bd
       0.05736339 0.014951261 0.03798064 -0.046649147
0001d0 7f e7 7a bd 01 f0 70 3d e4 d3 de 3b b2 85 95 3d
       -0.061255928 0.058822636 0.0068001617 0.07300891
0001e0 ac cb 71 ba 59 13 11 bc 33 15 07 bd a6 e4 2d 3d
       -0.000922377 -0.0088547105 -0.0329792 0.042454384
0001f0 56 2f 58 bd 3a 51 f0 3c 01 d7 17 bd ac ae 46 3d
       -0.052779518 0.029335607 -0.037070278 0.048506424
000200 16 5f 4b bd a3 9e 6f 3d 70 f2 5e bd 72 fd 4d bd
       -0.049651228 0.058500897 -0.054430425 -0.050290532
000210 b8 27 02 3d b4 b6 95 bd 36 bf 41 3c 1e 43 52 3d
       0.03177616 -0.073102385 0.011825373 0.05133354
000220 4e c1 23 bd 7d 7c 49 bd f4 0c 4d 3d 00 e9 1e 3d
       -0.03997927 -0.049190987 0.05006118 0.038796425
000230 5e 9e 33 bd bf 46 42 bd 2a 9b 80 bd cc e5 39 bd
       -0.043852203 -0.04743075 -0.06279595 -0.045385167
000240 ae 05 23 3d d5 b9 1f bd d7 f8 4c 3d a4 7e 25 3d
       0.03980034 -0.038995583 0.050042 0.040403977
000250 06 6d 72 3d 5d 53 2b 3d 21 3c 8d 3c 8c 14 4a 3d
       0.059186004 0.04182755 0.017240586 0.049336
000260 12 fe 92 bd 44 b9 3b bd df 34 ea bc 2f 94 3e bd
       -0.07177366 -0.04583098 -0.028589664 -0.046528038
000270 1c c2 53 3d ed f6 01 3d fd 4d 80 bd 95 de fe 3c
       0.05169879 0.031729627 -0.06264875 0.031111995
000280 8d bf 29 3d 04 77 f3 3c bf d2 b4 3c 8a ae fb 3c
       0.041442443 0.029719837 0.022073148 0.030722875
000290 7f 64 2b bd 7d ab 85 3d 7a c9 59 3d 1f e6 45 3d
       -0.041843887 0.065268494 0.05317066 0.048315164
0002a0 a6 40 ab bc 5b 16 4c 3d dc 85 88 3d 3e c5 d0 bc
       -0.02090485 0.049826007 0.06666157 -0.025484677
0002b0 b0 f7 7e 3d 66 69 1b 3d b2 3e 0d bd 0e 98 90 3d
       0.062247932 0.037942313 -0.03448362 0.07060252
0002c0 1b d5 61 bd 8a c2 67 bc a4 e0 21 bd 48 b1 c1 3c
       -0.055134874 -0.014145503 -0.039520875 0.023644105
0002d0 e9 fa 54 bd d7 1f 2e 3d 1f 72 92 3d 29 83 68 bd
       -0.0519971 0.042510834 0.07150673 -0.05676571
0002e0 93 cc f6 bc 8b ea 55 3d 59 37 bd 3b f3 7f 81 3b
       -0.030126845 0.05222563 0.00577442 0.0039520203
0002f0 0d 8d 88 3d ca 92 8e 3d b4 38 37 bd ed a3 31 bd
       0.06667528 0.069615915 -0.04473181 -0.043369222
000300 e5 55 da 3c 33 d1 33 3d b2 46 5b bd 12 a3 3f bd
       0.026652286 0.04390068 -0.053534217 -0.046786375
000310 bd c8 61 bd 41 3a 8f bc c8 bb f1 3c 5d 31 76 3d
       -0.05512308 -0.017483832 0.029508486 0.06010567
000320 e3 7b 6b 3d a8 cf 4e bd 88 5c 33 3d 5b 58 49 3d
       0.057491194 -0.050491005 0.043789417 0.049156528
000330 47 c7 8e 3d db 21 1b 3d 0b 4b 0f bd 38 a7 ca bc
       0.06971603 0.037874084 -0.034983676 -0.02473794
000340 86 f6 60 bd c9 d6 a1 bc 2b e0 8b 3c 61 51 69 bd
       -0.054922603 -0.019755738 0.017074665 -0.056962375
000350 28 27 b3 bc cf 34 84 3d 87 74 87 3c fb 77 65 3d
       -0.021869257 0.06455385 0.016535057 0.056022625
000360 94 78 24 bd fb e4 58 bd 80 95 32 bd c8 1d 86 bc
       -0.040154055 -0.052952748 -0.043599606 -0.016371623
000370 bb b0 04 bd b4 d0 61 3d b7 62 66 3d 51 25 7f bd
       -0.032395106 0.055130675 0.056246486 -0.062291447
000380 92 ea 20 3d 7f b3 28 bd 1f 0f 6e 3d 8e 07 65 bd
       0.039286204 -0.041186806 0.05811989 -0.055915408
000390 ea f7 7f 3d a8 b7 62 bd 33 75 30 3d d4 de 8f 3c
       0.06249229 -0.05535093 0.04308052 0.017562307
0003a0 d2 70 68 bd f2 de 1b 3d 31 7c 5d 3d 09 ae d4 3b
       -0.05674822 0.038054414 0.054073516 0.006490473
0003b0 e3 9d c6 3c eb 93 3f bd 09 ad 2b 3d 84 9e 0f 3d
       0.024245208 -0.046771925 0.041913066 0.03506328
0003c0 fa 40 5a bd d6 c0 30 bd 12 b9 25 bd 2c a1 90 bd
       -0.053284623 -0.043152653 -0.0404597 -0.07061991
0003d0 1e 7c a3 3d 99 dd 60 3d 60 84 42 bd ea 40 f4 3c
       0.07982658 0.054898832 -0.047489524 0.02981611
0003e0 ce c8 7d bd 85 f7 7e 3d 44 a5 c4 bc 76 0d 7b bd
       -0.06195908 0.06224777 -0.024004586 -0.061292134
0003f0 27 82 93 3b fc 8a c0 3b a4 e7 91 3d b1 96 3d 3d
       0.0045015994 0.005875943 0.0712426 0.04628629
